src/rl_sar/policy/go2/go2_velocity_flat/go2_velocity_flat.pt (torch, 174838 bytes, 8 tensors)

weight f4 [128, 49]
00000000: 34d6 833f fb50 95bf ecb5 c13d dfcf b53e
00000010: 509f 67bf 09e7 e03d 280f dbbe da24 01bd
00000020: c7da f7bc 3819 fdbd 1d29 a3bf 9c80 bfbe
00000030: fa80 7cbd 4b51 80be 7b8c 3dbe 260a 613f
00000040: 418e a1bd 3032 623e d212 ecbd dc1f 46bf
00000050: 0840 9ebf 2168 1dbd 3611 ffbd 4e96 073e
00000060: e051 fdbe 2a81 cb3c 9754 cbbc b1ce 95bd
00000070: 3b91 ddbc 460a 983d cc2a 33bd b2b5 99bd
00000080: 5a68 533d fedc 99bc 96b2 aabb 3f16 72bc
00000090: e582 a43c fab4 413e 9b90 06bd 2269 cdbd
000000a0: 5400 24be 4cc7 dd3d da29 c8bc 2703 82bc
000000b0: e607 26be 5eea 8a3d 1e34 f9bd 70f6 c7bd
000000c0: c6ff 9b3d 0fbc 023e 4d65 12bf 1543 bfbe
000000d0: 5ac4 88be 2e05 073f 2c71 f63f 39e5 9e3f
000000e0: 8ccd 65bd 2ee8 d83e 26c7 12bb dc7f 81be
000000f0: a14e 703f 032f 823c 9024 b03e 9b20 bf3f
00000100: b19e 06be 1ad1 07bf 47cd 81be 435a 7f3f
00000110: 2860 893f af4b 85bf 3872 4bbe 3085 9c3e
00000120: 19db 853d 439b b93d 6199 bfbc 869e 6b3d
00000130: 1a8f 60bc b75b 0d3d 0f17 6b3d 7304 90bb
00000140: 802d f93c 509c c33c d098 653c c12b 0d3d
00000150: eebe 8dbb 0fcb 32bd 5c6c 53be 2f7c 4cbd
00000160: b39c 213d c1e8 21be 8be8 9bbd c40a 44bd
00000170: 188b dc3d 1812 cf3d 3ebd ae3e 13e9 b3be
00000180: 0d63 34bd 265d 923e 2289 39be 2513 933d
00000190: 9daa 8dbe 9a1e 0fbf d2c1 4bbf 4c49 523f
000001a0: 3143 8b3f 34bf e8bb 943a 883d f194 bfbe
000001b0: 32c6 18bf c1ab 143f cf53 eebc d340 edbe
000001c0: bb8e 383d 9010 303f dbde a5be 9378 d8be
000001d0: 518f 603f f813 903f d7d1 90bf a0c4 c6be
000001e0: 9ec2 cc3d d00c 04bf 0b25 89be 1c24 973c
000001f0: b4b8 223d 7435 82bd 5191 9ebc 6e89 943d
00000200: 3fa5 69bd 53e2 80bd 053c 073e 68a0 bcbd
00000210: 20a6 29bd 93b9 76bd 15b3 18be 6b35 9a3e
00000220: e36a 1dbe 900b b33d c93e 7bbe 52b8 4abe
00000230: 8876 ba3d b2a5 1d3e 2f89 87bd 6d06 03be
00000240: 1f77 2f3e ad30 ad3e 1a14 8ebe 51fb 79bd
00000250: 9886 043f 2b45 95be 98dd 8ebe 74f9 f2be
00000260: 39a1 9a3d bc04 3d3f cf24 35be 6d7c 403e
00000270: fe53 d63e 68ea 8a3f 8060 d83a 8c74 c03e
00000280: 5176 62bf 545d 95bf e2ae 9fbf e9f2 aebe
00000290: 9114 98bf 392a 253f ae15 3fbc 25b3 3fbf
000002a0: 0830 aebe 7c67 923f 6547 b7be cedb 033f
000002b0: be5e 7bbc 5a4b 0a3d 16e4 85bd 9519 84bd
000002c0: f848 a83c c2b5 3bbc 9aa4 533d 3fa9 58bc
000002d0: a9a2 3cbc b9a1 0a3c d2f4 28bd 32d1 933c
000002e0: 0961 a1bd 6626 94be 8196 4b3e 375b 0c3c
000002f0: 9b2e d2bc 2a88 103e d37b e03c 39c5 d8bd
00000300: 15c1 5fbd e56e 853e 8549 ef3b 8e07 6fbd
00000310: 3cf6 1fbe e2fd 5dbf 7822 65be 26d6 dabe
00000320: f21c d3be f4de 563f b3b0 763e 0f85 553d
00000330: 5d85 e2bb 5c23 073e b73c 45be 0595 abbe
00000340: 95a3 193f 4f81 0dbf a31a 4e3d 5148 b6be
00000350: 3704 123e 0976 ed3e 0f4a b1be 9fe4 ec3e
00000360: ef0e 0f3f fa60 123f 5ed4 ba3e bfdc 4e3e
00000370: 8713 183f 130a 1f3d 7b99 c4bc 0467 4d3d
00000380: bd2f 193e c466 d83d 6738 6c3d 1be3 9ebc
00000390: 69c9 6dbd c0e4 05bd 6b16 243e 176f d63d
000003a0: a2ad f5ba 33ce 01bd 80e7 dabe 97ca 76be
000003b0: f8b2 0a3d e9f0 61be a584 12be f78e 173d
000003c0: f537 b13e 4bbc 85be 3d08 aebe 4f1e 173e
000003d0: 8079 a33e 347f 123e 6b43 303f 3a11 d2bc
000003e0: 1c11 3b3f 5c8f 3b3f fe36 f2bd a010 83bf
000003f0: e358 9cbe 45fa 1e3e ad6b a2bc c136 a43e
1.0299745 -1.1665338 0.09458527 0.35510156 -0.90477467 0.109815665 -0.42785 -0.031529285
-0.030255688 -0.12358326 -1.2746922 -0.3740281 -0.06164644 -0.25062022 -0.1851062 0.8790611
-0.07888461 0.22089458 -0.11527027 -0.77392364 -1.2363291 -0.038429383 -0.124544546 0.1324093
-0.49476528 0.024841864 -0.024820609 -0.07314814 -0.02704679 0.074238345 -0.043741986 -0.07505359
0.05161319 -0.018782135 -0.0052092774 -0.014775812 0.020081947 0.18916693 -0.03285275 -0.10029818
-0.1601575 0.108290285 -0.024434019 -0.015870644 -0.1621395 0.06782983 -0.12168144 -0.09763801
0.07617144 0.12767051 -0.5718582 -0.37355867 -0.26712304 0.5274228 1.9253287 1.2413703
-0.056104228 0.4236464 -0.0022396534 -0.2529286 0.9386998 0.015891558 0.34402895 1.4931825
-0.13146473 -0.5305344 -0.25351927 0.99747103 1.073247 -1.0413722 -0.1986779 0.30570364
0.0653593 0.09062817 -0.023388566 0.057524227 -0.013705993 0.034511294 0.057395037 -0.0043950616
0.030417204 0.023878247 0.014013484 0.034465555 -0.004325739 -0.043650683 -0.20646805 -0.04992312
0.03945608 -0.15811445 -0.076127134 -0.04786183 0.107687175 0.10110873 0.34128755 -0.3513876
-0.044039775 0.28586692 -0.18118718 0.07181386 -0.2766923 -0.5590607 -0.7959262 0.8214309
1.087988 -0.0071028713 0.06651798 -0.3741832 -0.5967742 0.58074576 -0.029092697 -0.4633852
0.045057993 0.6877527 -0.32396588 -0.4227949 0.87718683 1.1256094 -1.1314038 -0.38821888
0.09998058 -0.5158205 -0.26786074 0.018449835 0.039726928 -0.063578516 -0.019356402 0.07252775
-0.057042357 -0.06293168 0.1320649 -0.092102826 -0.041418195 -0.06023557 -0.14912064 0.3011888
-0.15372805 0.0874244 -0.2453567 -0.19796875 0.09104639 0.15395239 -0.066179626 -0.1279542
0.17135285 0.338262 -0.2774971 -0.06103069 0.51767874 -0.29154333 -0.27903438 -0.47455943
0.07550282 0.7383535 -0.17689823 0.18797465 0.41860956 1.0852785 0.0016508251 0.37588918
-0.88461787 -1.1669106 -1.2475245 -0.341697 -1.1881276 0.6451755 -0.011662884 -0.7488273
-0.3402102 1.1437831 -0.35796657 0.5150727 -0.0153424125 0.033763267 -0.065376446 -0.06450192
0.020542607 -0.011456909 0.05167065 -0.013223945 -0.011513391 0.008461409 -0.041249104 0.018044088
-0.07879836 -0.28935546 0.19881631 0.008566669 -0.025656989 0.14114442 0.027402794 -0.10584492
-0.054627497 0.26061168 0.0073024654 -0.058356814 -0.15621275 -0.8671552 -0.2237643 -0.42741507
-0.4123302 0.8393395 0.24090843 0.052128848 -0.006912871 0.13197082 -0.19261442 -0.3351213
0.6001523 -0.55275434 0.05031837 -0.35602048 0.1425942 0.46379116 -0.34626815 0.46268174
0.5588216 0.57179224 0.36490148 0.20201395 0.59404796 0.038827967 -0.023998966 0.05014707
0.14959617 0.10566476 0.057670977 -0.019395402 -0.058053408 -0.032688856 0.16024177 0.104704075
-0.0018743763 -0.031690788 -0.42754745 -0.2410072 0.033862084 -0.22064556 -0.14308412 0.037001576
0.34613004 -0.2612022 -0.3399066 0.14757656 0.31928635 0.14306337 0.6885287 -0.02564298
0.7307298 0.73265624 -0.11826895 -1.0239449 -0.30536565 0.15525158 -0.019826734 0.32073024

bias f4 [128]
00000000: d4cd 023e d9e2 f73d ab5e 4dbe 31a5 84be
00000010: 069c e0be c116 e23e d82b d03e 64e2 05b9
00000020: 6f46 94be 62ad 83bd 0454 8cbe cb35 e43e
00000030: 45a0 5ebe 5ad6 0f3e 57e0 68be de48 7ebb
00000040: da4f af3d be65 babd b470 f2bd 8535 c5be
00000050: 6d2d 7bbe 1711 9dbe a9b9 e03d c7ef 16be
00000060: 7f0e 6dbe 172a 013e 8543 b23e 4317 013d
00000070: 437b 393e cbb2 ae3c 9c28 1f3e a487 943d
00000080: 5638 2fbe 41b1 4bbe bd0d d7bd f646 8e3e
00000090: f1d8 8a3e 82b3 c7be 6b52 aebe 4a5f ecbe
000000a0: f255 523e 5531 cb3c 3c6e 5ebe bb93 e03b
000000b0: 74fb a6bd 71bb ce3d 110b 4cbd f487 fe3d
000000c0: aeb4 2bbe fcd6 533d 20ac 073d ba29 a1be
000000d0: 8cd3 a0be 6d78 c5be 33f8 99be 3c59 613e
000000e0: 1a23 66bc e68a 9e3d c333 0e3e 8834 5cbe
000000f0: 93a4 3cbe 9a50 06be 79c3 d2bd ee24 a83d
00000100: 735e dabe 1bfb 85bd c99c 6e3e 8d60 40be
00000110: 3043 a5bd 0fab 88bd c258 e23d 0811 6e3d
00000120: 42f7 393b a5da 45be 368e 24be 170b 23bf
00000130: 32d7 6ebe d1b0 68be 0314 f2bc 4abd 8aba
00000140: c219 223e 4fee 09bd 8a19 af3d 9c69 973d
00000150: 08ff afbd 6a79 8d3e d7b7 f33d 8848 23bf
00000160: 5f48 9fbe 6f26 67bd b2f5 833e 4e4a 86bc
00000170: 0620 193e 618a 1ebe d4e3 ddbe 454f e1bc
00000180: 6a14 7b3e ce7c 52be 3c7a 66be 55d3 19be
00000190: 1480 d73e f9ea 373e 9168 693d 09d1 2d3e
000001a0: 39c2 09be ff06 e7bc 6ecb 0bbe c939 24be
000001b0: e60e acbd 654f e1be 1405 e6bd 27bb 36be
000001c0: 685b 43be 5051 c5be 346e eabd 7eeb 01bf
000001d0: 1505 1abe 01fe 80be 8941 b13d ff7e 30bc
000001e0: 40d4 febd 00b6 79bd 0b7e 323e 9b7b a5be
000001f0: 56f9 983c 9511 c2be 8ee5 61be 8fae 743d
0.1277383 0.12103815 -0.20055644 -0.2590728 -0.43869036 0.44157985 0.4065845 -0.00012768205
-0.28959987 -0.064295545 -0.2740785 0.4457229 -0.21740825 0.14046612 -0.22741829 -0.0038800756
0.08560152 -0.09101437 -0.11837903 -0.38517395 -0.24529047 -0.306771 0.10972912 -0.14739905
-0.23150061 0.12613712 0.34817138 0.031516325 0.18113427 0.02132549 0.15542835 0.07252434
-0.17111334 -0.19891836 -0.10500667 0.27788514 0.27118638 -0.3900414 -0.34047255 -0.4616645
0.20540598 0.024803797 -0.21721739 0.0068535483 -0.081534296 0.10094345 -0.04981524 0.12428275
-0.16768143 0.051718697 0.033123136 -0.31477147 -0.31411397 -0.3856844 -0.30072173 0.22006696
-0.014046455 0.077413365 0.13886933 -0.21504414 -0.18422155 -0.13116685 -0.1029119 0.08210169
-0.42650184 -0.06542035 0.23301996 -0.18786831 -0.080694556 -0.06673252 0.110520855 0.05812171
0.0028376137 -0.19321688 -0.16069874 -0.63688797 -0.23324278 -0.227237 -0.029550558 -0.0010584977
0.15830138 -0.033674534 0.08549793 0.0739319 -0.08593565 0.27631694 0.11900299 -0.6378255
-0.31109902 -0.056433138 0.25773388 -0.016392853 0.14953622 -0.15482475 -0.43337882 -0.027503619
0.24519506 -0.20555422 -0.22507566 -0.15022023 0.42089903 0.17960729 0.056984488 0.16974272
-0.13452996 -0.028201578 -0.13651821 -0.16037668 -0.08401279 -0.44005886 -0.11231437 -0.1784483
-0.19077837 -0.385386 -0.11446801 -0.5074996 -0.15041001 -0.2519379 0.08655078 -0.010772466
-0.12442827 -0.060964584 0.17430894 -0.32320866 0.01867358 -0.3790404 -0.22060224 0.059736785

weight f4 [128, 128]
00000000: ad91 99bd 6015 eebd 7f29 823d 3a26 90bd
00000010: c325 2e3d ccf9 943d 5440 b93d aff2 d9bc
00000020: de16 833e e31e d5bd e744 a33d d209 0a3e
00000030: fc6e 3c3d b87f 3f3c 1e9d d3be 0b2a 41be
00000040: 8333 133d 2bbc 323c 3eb2 28bd 86c0 053d
00000050: 3e05 253e ec1a f1bd 6b14 59bd 9d31 c4bd
00000060: 0359 60be cf21 bf3d ad0b b13e 7962 b03e
00000070: 92d4 8c3d f023 e03d 49b5 39bc ca88 293e
00000080: 7152 103c e9c2 37be 7355 64bc 9b73 cf3d
00000090: 5a3f 413d 91aa adbd 5b7b 77bb 0bf6 27be
000000a0: 4655 87bd 318b 973d 948e 803d 1ecc 043e
000000b0: c1d8 873e 697f d4bc 32a0 913d d847 c83d
000000c0: 77e6 79bc 45a1 7d3d cce3 893d 9181 843e
000000d0: 23e8 553e e1bc f13d cb9b 953d 344a 0abe
000000e0: 1be1 bf3e f972 c5bd 9a2e b93c 317e c23e
000000f0: ec6f 4a3d cf44 d2bd 0205 8e3e de0d 703e
00000100: e4dd 14be ec2a 593e 4599 b13b 7398 253e
00000110: e48d dcbd b9b2 9cbb 4efb 2e3e f2ff a8bc
00000120: 109e b8bd 3aba 32bc 6b93 933d 6999 adbc
00000130: 0ab2 d23c 027d a43e 660f b33e 533d d8bd
00000140: 1072 453e 3828 473e 2dbe 953e 8b47 323e
00000150: 8660 a7bd c02b 803e ff94 bdbd 0529 e13d
00000160: ed0d 7d3e 21c7 6e3e 43b3 b53d 9559 383e
00000170: 9374 32bd 1751 0ebb fdbe 0b3d 80d1 e13d
00000180: 0b55 533e a925 923d 7e72 b63d c612 adbd
00000190: 35c3 ce3d 3240 f9bb 9f98 8a3e ed65 fabd
000001a0: 048c 7b3e 626f 84be d713 f53d 2bdb 123e
000001b0: 6cf3 7ebd 68f2 a23d 2255 8d3e a02c 953e
000001c0: 76a1 893d 3a32 52bd a4b8 dabd 4b33 54be
000001d0: b28a 893d 709f 2e3e 7823 933d cfbc d23e
000001e0: eef7 4a3e 6918 d83c 510d 823e 9e05 6d3d
000001f0: 0cca 11bd 712e 0d3e f4f0 0fbe 2840 acbc
00000200: 7067 403d eceb d3bc f572 78be 5024 afbe
00000210: 8600 493e 50af 91be d42a 91be 7271 22be
00000220: 5e43 e9bd a126 723d 95b3 e8bd 6247 47bb
00000230: c29c 3dbb e2e6 44be 2027 9abe 753b 35bc
00000240: b683 e1bd 29de 81bd a0dd 2e3d a480 8ebd
00000250: d5a0 fc3c 314b 833e 391b 37be 1f04 a83d
00000260: 55d4 6bbe 45a0 53bd 6816 0d3c c460 4dbe
00000270: 7139 85be 4c8a 46be fad3 553d 80cd 2d3d
00000280: 932a 123d 4892 483e 1bda b03d 3b18 cabb
00000290: 52db df3d 0336 25be c475 e93d 2994 a5bd
000002a0: 8e18 bcbe 4b78 53bc 8cf1 72bd fc69 423c
000002b0: de61 c7bd 5178 683e bdad 80be d872 2b3e
000002c0: 3cf6 cc3d 6fe6 723d 3acc dc3d e4db 283e
000002d0: 5091 23be c5c5 793d d143 473c d6bf 85bd
000002e0: 4168 353c d07c 093e 562b a53d 3168 973d
000002f0: d2c7 073d acc2 fd3c bfc3 32be 4bc7 d7bd
00000300: f46b da3d a5d5 e2bc 1890 02be 69cc 3a3e
00000310: 77f5 a5bc 586f 9abe 5b4d e23d de35 bd3d
00000320: 13d0 fc3d 97e6 bcbd d5e4 a3bd 5813 043e
00000330: 9a0b a63c 581f fcbc 9175 653c ead4 a0bd
00000340: 3279 90bb 0650 4ebe 8cf1 60be 0698 2ebe
00000350: a7b6 60be 9ea6 68bc 8e55 92be b736 173e
00000360: a0d1 3b3e a9a2 e33d 10d4 e43d edac d63d
00000370: 4745 873d 67bb 0a3e f55e b4bc 515b 0f3e
00000380: 2e0a a13b d00a 02be 0f28 95bd cb6c 02be
00000390: aa91 103d 6147 8c3d f356 cdbd 6dfd 4ebe
000003a0: d1f9 08be f290 15bd 8c0a 46be 4971 8c3d
000003b0: d4e0 01be 24ed c2bc dd44 b1be 966a 14be
000003c0: f795 3c3d 40e8 2f3e d11d 61bd 3dbb d1bb
000003d0: 4fe4 eebd 4265 6fbe 0269 973e 64cf 11be
000003e0: 2cd7 11bd b890 42be 369c e9bd 522a 84bd
000003f0: 17d4 163e 1921 e13d e20e 1bbd dec9 093e
-0.074984886 -0.11625171 0.06355571 -0.07038541 0.04251648 0.072742075 0.09045473 -0.026604978
0.25603384 -0.10406282 0.079721265 0.13480309 0.04600428 0.011688165 -0.41330808 -0.18863694
0.035937797 0.010909121 -0.04118561 0.032654308 0.16115281 -0.11772713 -0.052997988 -0.095797755
-0.21908955 0.0933262 0.3457922 0.3445013 0.06876482 0.109443545 -0.011334726 0.16556087
0.008808718 -0.17945446 -0.013936388 0.10129472 0.047179557 -0.084797986 -0.0037762735 -0.16402452
-0.066080615 0.073995955 0.062771946 0.1296849 0.26532558 -0.02593966 0.07110633 0.09779328
-0.015252701 0.061921377 0.06732902 0.258801 0.20889334 0.11803604 0.07305106 -0.13504869
0.3747643 -0.0964107 0.02260523 0.379869 0.049423143 -0.102670304 0.27738196 0.2344279
-0.1453777 0.2120778 0.0054198825 0.16171436 -0.10769251 -0.0047820476 0.17088053 -0.020629857
-0.09014523 -0.010908658 0.07205852 -0.021191316 0.025719661 0.32126623 0.34972686 -0.10558572
0.19281793 0.19448936 0.29246655 0.17410104 -0.08172707 0.2503338 -0.092569344 0.10994152
0.24712344 0.23318149 0.08872082 0.18002923 -0.043568205 -0.0021715814 0.034117687 0.11026287
0.2063791 0.07136089 0.089085564 -0.084508464 0.100958265 -0.0076065296 0.27069566 -0.12226472
0.2456513 -0.25866228 0.11966675 0.14341418 -0.062243864 0.079563916 0.27604014 0.2913561
0.06720249 -0.05131743 -0.10679749 -0.20722692 0.06715907 0.17053008 0.071844995 0.41159675
0.1982114 0.026378827 0.25400785 0.057866685 -0.035593078 0.13787247 -0.1405676 -0.021026686
0.046973646 -0.025869332 -0.24262603 -0.34207392 0.19629106 -0.28454065 -0.28352988 -0.15863588
-0.113898024 0.05911887 -0.113623776 -0.0030407538 -0.0028932546 -0.192287 -0.30107975 -0.011061539
-0.1101145 -0.06341202 0.042691827 -0.0695813 0.03083841 0.25643304 -0.17881478 0.08203911
-0.23030217 -0.051666517 0.008611299 -0.20056444 -0.26020387 -0.19388694 0.05220411 0.04243231
0.035685133 0.19587052 0.0863535 -0.0061674393 0.10930504 -0.16133885 0.11399415 -0.080849
-0.36737484 -0.012907098 -0.05931239 0.011866089 -0.097354636 0.22702147 -0.25132552 0.16743028
0.10007903 0.05930179 0.107811406 0.16490132 -0.15973401 0.060979623 0.012162165 -0.065307304
0.011072219 0.13426518 0.08064906 0.0739292 0.033149548 0.030976616 -0.17457484 -0.10536059
0.10665122 -0.027689764 -0.1275028 0.18242039 -0.020258648 -0.30163074 0.11049911 0.0923879
0.123443745 -0.09223669 -0.080026306 0.12898004 0.020269204 -0.030776665 0.014005081 -0.0785311
-0.004408979 -0.20147714 -0.21967143 -0.1705018 -0.21944676 -0.014199881 -0.28580898 0.14766966
0.18341684 0.11115009 0.1117326 0.10482202 0.066050105 0.13548051 -0.022017935 0.13999678
0.0049145436 -0.12699437 -0.07283031 -0.12736814 0.035295166 0.06849552 -0.1002635 -0.20213862
-0.13376547 -0.036515184 -0.19339961 0.06857545 -0.12683421 -0.023794718 -0.3462285 -0.14493784
0.046041455 0.1717844 -0.054960076 -0.0064004944 -0.1166464 -0.2337847 0.29572302 -0.1423927
-0.035605595 -0.19000518 -0.11406748 -0.064533845 0.14729343 0.10992641 -0.03785599 0.13455912

bias f4 [128]
00000000: 6184 4cbe d6d9 18be 0d30 87be a8ac 62be
00000010: a303 6bbe f8e9 1dbd 8d8a 0ebe e23a 9cbd
00000020: e832 8e3c e1b1 8ebd 57f9 1ebd 431a 34be
00000030: c493 abbe 3eeb 82be f12c b53e ea8b 36be
00000040: aa24 cdbe 79df 8ebe fb40 d9be 1578 0cbe
00000050: f952 1bbe b8e5 cebc 6aa7 07be 56f4 75be
00000060: bdc1 c0be 67be 95be 8a07 353d 6d4f 52be
00000070: b016 2dbe 0d6c afbd 5692 c8be d267 02bc
00000080: 8581 99be 4d09 85be 60c1 bdbe d8c6 34bd
00000090: 314f bbbe dbea 6abe 49a7 93bd 9852 dcbd
000000a0: bdf3 babe 6b02 66be 5ad0 d4bd ed67 45be
000000b0: 0439 49be 0f1e ddbd a078 1ebe 83a2 debe
000000c0: 0f42 1cbe 3e92 a4be f6ef a2be ef51 25bf
000000d0: d59b 09be d3c6 8cbd da65 a0be 082f 11be
000000e0: 9c75 08be 6ddb 7c3d 319a 36be 755a 90be
000000f0: 014c a7be 94e3 1bbe 6db1 2fbe d524 51be
00000100: 8a0b 7dbe f4a6 6cbe fac2 32be 4e11 2fbe
00000110: f5f3 71be abdd 6cbe 3bd7 cdbe be3b 3abd
00000120: 694d 1bbe 1de2 60be e1cc 4abe fb8a 92be
00000130: 9d92 ddbe 2732 b9be 7104 b9bd 0c3b c9be
00000140: 117f c3bd 64f9 06be 54ab 2abe 0927 b8bd
00000150: 1008 f2be 24d5 bebd 11ff 42be f64e 86be
00000160: 7c01 363d 9846 a5bd e5cc 49be 6fa6 ecbd
00000170: 8505 8fbe 5120 8cbe 3f47 8ebe 7c5a b1be
00000180: 97ad a8be 53a1 69be 28f1 02bf 656e 38bd
00000190: 95b5 0ebd d3aa 3fbe ebe6 f7bc 2fd9 65be
000001a0: bf0d 02be e50d 48be e554 75be 2ea7 e6bd
000001b0: fbd6 b9be 34ee 05bf c4ab 54be 9d20 9abe
000001c0: d60c e7be b26f d1be 4851 30be 79a8 84be
000001d0: 4e86 9ebe 1bae 3bbd e3fa 68be ac6c 45be
000001e0: fb49 25be 23b3 4bbe 5989 65be 4f68 3fbe
000001f0: b06d 83be c850 e8bd ce2b 3bbe 0c2d 78be
-0.19972374 -0.14926848 -0.26403847 -0.22136176 -0.22950606 -0.038553208 -0.1392004 -0.076284185
0.017358258 -0.069675215 -0.038812008 -0.17588143 -0.33511174 -0.255701 0.3538585 -0.1782681
-0.40067035 -0.2790487 -0.4243239 -0.13717683 -0.1516837 -0.025256023 -0.13247457 -0.24018988
-0.3764781 -0.29246828 0.044196643 -0.20538111 -0.16903186 -0.08565531 -0.39174145 -0.007959323
-0.29981628 -0.25983658 -0.37061596 -0.044134945 -0.36583856 -0.22941153 -0.072096415 -0.10757941
-0.36514083 -0.2246186 -0.103913024 -0.19277926 -0.19650656 -0.10796749 -0.15475702 -0.43483362
-0.15259574 -0.32142824 -0.318237 -0.64578146 -0.13438351 -0.0687386 -0.31327707 -0.14178097
-0.13326114 0.0617327 -0.17832257 -0.28194013 -0.32675174 -0.15223533 -0.17157526 -0.20424207
-0.24711433 -0.23110563 -0.1745719 -0.17096445 -0.23628218 -0.23131435 -0.4020327 -0.04546713
-0.15166248 -0.21961255 -0.19804718 -0.2862166 -0.4327592 -0.36171076 -0.0903405 -0.39302862
-0.0954572 -0.13181072 -0.16666919 -0.0899182 -0.47271776 -0.09317997 -0.19042613 -0.26232117
0.04443501 -0.08070105 -0.19707067 -0.11555182 -0.279339 -0.27368405 -0.2778873 -0.34639347
-0.3294494 -0.22815447 -0.51149225 -0.045027155 -0.03484114 -0.18717508 -0.030261477 -0.2244613
-0.12700556 -0.1953655 -0.23958166 -0.11262356 -0.3629683 -0.52316594 -0.20768648 -0.30103007
-0.4512698 -0.4090553 -0.17218506 -0.25909784 -0.3096184 -0.045820337 -0.22751956 -0.19279736
-0.16141503 -0.19892554 -0.22415675 -0.18692134 -0.25669622 -0.11343533 -0.18278429 -0.24235934

weight f4 [128, 128]
00000000: ec77 d03c ee21 2bbe a05d 9b3c b63f d5bd
00000010: fe5e db3c 0dc6 8dbd 850d 593d 6bc4 84be
00000020: 367b ecba ddfa f4bc 98d5 c43d e9ee 50be
00000030: 0fda 36be 1083 5b3c 6086 eebd c342 47bc
00000040: 48b4 6f3d 99b7 2d3c 085a a93d 28fa 813d
00000050: d850 663b 2cde 41bd 561e 93bd b12e b1bd
00000060: 221c 373c 9e57 27be aae1 90be 2f95 b93b
00000070: f13f b43d 5a36 873e 8d55 79bd 0ee5 173b
00000080: c051 2a3d f99f 783d c143 0bbe 0195 5dbe
00000090: a253 3a3e 439b 5abc c99d 27be 3c8f 80bd
000000a0: 5129 4cbe c1c0 6ebe c5c3 acbc 232f 4f3d
000000b0: 29d7 9bbd 9ba5 eabd c3ca 10be 8271 c0bc
000000c0: 65a2 adbd 537f 06be 5c2f cb3d 0fe3 bf3d
000000d0: 3804 e03c 747c 04bd fb83 23be 4167 abbd
000000e0: 8648 50bd 4407 5c3d 1f45 90bd 691d 913d
000000f0: c882 12be 11b2 4abd a8ad 3fbe ac34 c93c
00000100: 8cc5 9f3c b30f ba3d 9d8d a63d b643 1e3d
00000110: 0e88 033e e92f e8bd d5b0 a63c a3dc d4bc
00000120: b2a4 1c3e 03a0 acbd 24a8 e23d a588 37be
00000130: 52cb 49bd 48f2 103d a1e1 afbd 53be e1bd
00000140: 14a6 9fbd 1101 ae3d 091d 633c 9ad4 1a3e
00000150: d14c 00be 5d72 4bbd 7e96 003e 1627 923d
00000160: 5613 93bd a9ef 423c 48b1 bf3d 8075 063d
00000170: c352 bbba b8f9 113d e6b6 40bd a8b8 153d
00000180: fafa 0c3c 9b63 833d 9096 50bd 6819 8b3b
00000190: 1508 67be af77 5b3d 06ea 07be 8d41 fcbc
000001a0: f369 34bb 93c5 de3d 1552 af3d 0968 fbbd
000001b0: 7c25 88be 929a adbc 22dc ccbd b22c 90bd
000001c0: ea6c a9bd 91e1 3ebe 1ca7 7a3d b293 94bc
000001d0: ff9c 6dbd 4c67 efbd 9386 60bc 23d8 6a3d
000001e0: 8787 a53d fcc9 873d 417b 68bc 6ac6 b4bd
000001f0: 1528 52bd 84c4 75bd 9d8c dfba 0ad0 4e3d
00000200: b7c6 ab3c 22ac 92ba 43e5 c33c ae7c 34bd
00000210: 5b10 003d 6d8e 8d3d dea3 33be 9529 cdbd
00000220: 8bdb 01be b743 90be c478 38be bf48 5fbe
00000230: ca5d c13b 758b 82ba 07bb d63c ee88 993d
00000240: e839 a53d e68d 4f3d 8951 0a3e 739f 8b3d
00000250: bd48 513d d77a 5bbe 178b bbbd c775 3dbd
00000260: 6b7a 86bd c87a 6f3d 8349 b6be 395b b3bd
00000270: b4eb 413e e0f6 203e 302d 3bbd d9d2 943d
00000280: b009 31bd 33c2 573d 627a 54be c872 94bd
00000290: 9220 2bbd 81b0 d0bc 4aa7 c8bd c67f c3bd
000002a0: ebfb 17be 7a1a c83d f0ff df3b 9fde 0fbe
000002b0: 5bfc 50be 4bba 76bd 1a9e bb3d f1a0 d1bd
000002c0: c251 833d b349 4abe ac16 4a3e af5d 1bbe
000002d0: c8b9 c5bd 4624 c53d 2c17 ce3c 8e7b 813c
000002e0: 6e05 083d bd90 f7bd 71a1 7c3d 78a3 883d
000002f0: 61e8 12bd 0d86 72bd dfaa c03d 323b a4bd
00000300: 21eb a7bd 524e ec3d 9028 8fbb ba38 b2be
00000310: 83c3 203e f52d b73d 9caa 9f3d f6ae eebd
00000320: be25 9bbc d69e 44bd ef53 40bd 5c43 13be
00000330: 1c65 143d 2afb 163d 882a cbbc 6916 a5bd
00000340: 2758 b1bd fd67 213e 5764 0a3e ca82 893d
00000350: 3c43 1bbc 1bce aabc ef49 dd3d 339c 603c
00000360: 7105 59be 122d 43bd e893 c4bd 8292 efbc
00000370: b741 88bd 5456 82bc d409 56bd d473 11bd
00000380: e408 cabc 33f9 e23c a847 f9bd 6093 b4bd
00000390: b006 cfbd bcc3 ccbd be1a a7be 8521 eabd
000003a0: f323 a63d 2b81 8e3d 5d78 01bd 201d 353d
000003b0: ee57 4c3c fd45 07bd 892f 12be ae15 40bd
000003c0: bd42 703e 2e3b 0ebd 11eb 7d3d fd4f 33bb
000003d0: 5432 47bd 85c9 10be c70a d33d 46b0 0c3e
000003e0: b808 02bd afa1 073d 3db1 26be 3e5a 793d
000003f0: 6232 36bd af61 51be ddb9 05bd d591 99bd
0.025447808 -0.16712162 0.018965542 -0.104125425 0.026778694 -0.06922541 0.05299141 -0.25931105
-0.0018042091 -0.029904777 0.09611052 -0.20403637 -0.1785662 0.013397947 -0.11646724 -0.012161913
0.05852154 0.010602855 0.08269125 0.06346542 0.0035143401 -0.04733102 -0.071835205 -0.08651484
0.011176141 -0.16342017 -0.28297168 0.005663536 0.08801258 0.26408654 -0.060872603 0.0023177299
0.04158187 0.060699437 -0.13600065 -0.21638872 0.18195966 -0.013342681 -0.16368784 -0.0627732
-0.19937636 -0.23315717 -0.021089444 0.050582062 -0.07609398 -0.11457368 -0.14139847 -0.023491625
-0.0847824 -0.13134508 0.099211425 0.0936948 0.027345762 -0.03234525 -0.15968315 -0.083693035
-0.050850414 0.053717867 -0.07044434 0.07085688 -0.14307702 -0.049486224 -0.18718588 0.024561249
0.019503377 0.09085026 0.08132479 0.038638793 0.1284487 -0.11337263 0.020347992 -0.025984114
0.15297201 -0.08428957 0.110672265 -0.1792322 -0.049266167 0.035387307 -0.08587957 -0.110226296
-0.07795349 0.08496297 0.013861903 0.15120164 -0.12529303 -0.049669612 0.12557408 0.07136361
-0.071814224 0.01189796 0.093599856 0.0328269 -0.0014291633 0.03563854 -0.047049426 0.036553055
0.008604759 0.064154826 -0.050924838 0.004244972 -0.22561677 0.053580936 -0.13272867 -0.030792976
-0.002752897 0.10877528 0.08560578 -0.122757025 -0.26591098 -0.021191869 -0.100029245 -0.07039775
-0.08272727 -0.18640734 0.061194524 -0.018136833 -0.05801105 -0.11689624 -0.01370396 0.05733503
0.080824904 0.06630322 -0.014189542 -0.08826907 -0.051307756 -0.060001865 -0.0017055456 0.05049137
0.020968778 -0.0011190216 0.023913031 -0.044064216 0.031265598 0.06911931 -0.17542979 -0.10017697
-0.12681405 -0.28176662 -0.18014818 -0.21805094 0.005901073 -0.0009959774 0.026212228 0.074968204
0.08067685 0.050672434 0.13507666 0.06817522 0.05109476 -0.21433578 -0.09157389 -0.0462549
-0.06566318 0.058466703 -0.3560296 -0.08757634 0.1893757 0.15719175 -0.04569739 0.072667785
-0.04322213 0.052675437 -0.2074981 -0.07248455 -0.04177911 -0.025474789 -0.09797533 -0.09545855
-0.14842193 0.09770675 0.00683593 -0.14049767 -0.20408766 -0.060236257 0.09161015 -0.10235775
0.064120784 -0.19754677 0.19735211 -0.15172456 -0.096545756 0.09626059 0.025157534 0.015805986
0.033208303 -0.120881535 0.0616774 0.06671804 -0.035866145 -0.059209872 0.09407591 -0.08019103
-0.08199144 0.11538376 -0.004368849 -0.34808904 0.15699582 0.089443125 0.07796213 -0.11654465
-0.018938895 -0.04800304 -0.046955045 -0.14381164 0.036229238 0.036860622 -0.024800554 -0.08060915
-0.08659392 0.15762325 0.13514839 0.06714399 -0.009476479 -0.020850232 0.10805117 0.013709116
-0.21193482 -0.047650404 -0.095985234 -0.029244665 -0.06653159 -0.015910305 -0.052255467 -0.035510853
-0.024662443 0.027706718 -0.121718705 -0.08817172 -0.101086974 -0.09998271 -0.3263759 -0.114321746
0.081123255 0.069582306 -0.031608928 0.04421723 0.012472136 -0.03302573 -0.14275946 -0.046895675
0.23462959 -0.034724407 0.061991755 -0.002736091 -0.04863198 -0.14139374 0.1030479 0.13739118
-0.031746596 0.033113178 -0.16278549 0.060877077 -0.044481643 -0.2044742 -0.032647956 -0.074985184

bias f4 [128]
00000000: ded2 b53c bc0f 96bd 768f 14be c342 1ebe
00000010: d481 8ebd f94c 24bd 0cec a2be 8f3d 59be
00000020: 733f e1bd 4821 73be 5121 27be 0e7f c2bd
00000030: cb30 33bd 236f cfbd 8bd4 27be f3bf 41bd
00000040: b070 3c3d 3efc 94bd b4e2 15be 76cf 4abe
00000050: 0887 dbbe e5cc ffbc 0f23 c5be cd4c 6abe
00000060: 07dd 2bbe 15c1 88bd 35b4 25be 899f b5be
00000070: c942 0ebe a788 a1be ffab 45be a845 13be
00000080: 43ea 5cbe d0f5 22be f66e c5bd 1228 05be
00000090: 5fc6 c2bd dcc5 49be 2c06 41be 5c4b 17be
000000a0: 3281 e5bd b283 1abe 79d4 b9bd b40b 1fbc
000000b0: dc06 59be 37cf 89be 3532 f3bd 869a 31be
000000c0: d295 87be 4148 3ebe c682 6fbe 80ee 3dbe
000000d0: c08f 6cbd e69e f3bd 7e13 39be d185 d8bd
000000e0: d900 1ebd b68b 32be e2d0 0cbe f8bc 32be
000000f0: 0f84 35be 5eaa 06be 9cda c7bd b745 6ebe
00000100: 2b74 05be 31e0 e6bd d559 a8bd 1e49 093a
00000110: 981e 6dbe 9d5e 93be 7965 19be 737a 0ebe
00000120: beee 11be 5492 a5bd 4bc0 61be 98cc 27be
00000130: 75bf 72be fb52 12be 18d5 55bc 88bd 9cbc
00000140: 4909 5cbe 27da 23be 0edd 29be fb1c 58be
00000150: a353 51bd 44a6 12be 11da 93bc 0651 1cbe
00000160: b9c2 7abd ac79 3cbd d247 8cbe 3fe7 16be
00000170: bdeb febd f4d7 4cbe c0c4 14be 12a2 e6bd
00000180: 0e14 9cbe 4164 3dbe 0ccf 04be f8c8 56bd
00000190: ee87 61be df45 86be 96d6 b1be 16ce 293d
000001a0: 3cce 12be b74b 72be 4122 23be 972a 6cbe
000001b0: 4c8c afbd 6c17 a6b9 8daf 66be fcfa 43be
000001c0: f202 93be 3cdc bcbd a0dc e3bd 5854 e4be
000001d0: cd31 0abe af21 80be 6ccb bfbd a2d9 1abe
000001e0: c10c 32be ac81 19be 839f 90be d928 7cbd
000001f0: 0719 47bd 419f 0ebe 8a81 acbd eb05 25be
0.022195276 -0.0732722 -0.14507851 -0.15455155 -0.069583565 -0.04011247 -0.31820714 -0.21214889
-0.1099843 -0.23743165 -0.16321303 -0.0949689 -0.043747704 -0.101286195 -0.16389672 -0.047302198
0.046005905 -0.07274674 -0.14637262 -0.19805703 -0.42876458 -0.031225631 -0.3850331 -0.2288086
-0.16783534 -0.066774525 -0.16182025 -0.35473278 -0.13892664 -0.3154957 -0.19303893 -0.1438204
-0.21573739 -0.15914083 -0.09640305 -0.13003567 -0.095104925 -0.19704384 -0.1885001 -0.14774841
-0.11206283 -0.150893 -0.09073729 -0.00970738 -0.21194023 -0.26915905 -0.118748106 -0.17344102
-0.2648149 -0.1858225 -0.2338973 -0.18548012 -0.05775428 -0.11895542 -0.18073842 -0.105723985
-0.038575027 -0.17436108 -0.13751557 -0.17454898 -0.17726158 -0.13150927 -0.09758493 -0.23268782
-0.13032596 -0.1127323 -0.08220259 0.00052370306 -0.23156202 -0.28783122 -0.14980115 -0.13913898
-0.14251229 -0.080845505 -0.2204601 -0.1638664 -0.23705848 -0.14289467 -0.013051294 -0.019133344
-0.21487917 -0.16001187 -0.16588232 -0.21104805 -0.051105153 -0.14321238 -0.018048318 -0.15265283
-0.06122086 -0.046014473 -0.27398545 -0.14736651 -0.12447307 -0.20004255 -0.14528179 -0.11261381
-0.3048405 -0.18495275 -0.12969607 -0.052437752 -0.2202451 -0.26225182 -0.3473403 0.041456304
-0.14336485 -0.23661695 -0.15931036 -0.23063122 -0.085716814 -0.00031679438 -0.22527905 -0.19138712
-0.28713185 -0.09221694 -0.11126065 -0.445956 -0.1349556 -0.250257 -0.093649715 -0.15122083
-0.17387678 -0.14990872 -0.28246698 -0.061562393 -0.048607852 -0.13927938 -0.08423145 -0.16115539

weight f4 [12, 128]
00000000: 418b b5bc 107a b4ba acd7 633d 2b67 043d
00000010: c41c d93c 9b36 a53c 0c2b 593d cb9a d8bb
00000020: 1ad1 1e3c ea33 a0bd f7da 883c 97b9 70bd
00000030: 3c40 c1bc 8e1c b6bb 98c5 e23c 7599 b3bc
00000040: b07d 43bc 7a85 59bd 3c00 c6bc e447 06bd
00000050: 6c13 b33d 1641 c03c 7b17 a33d 0ec4 9c3c
00000060: 340a 3e3d b4ed 2bbd eded 3fbd 04d0 d53d
00000070: 5db4 c9bc 31d4 fc3c 48ef 9cbc 7aa7 cabd
00000080: cd47 02bc 7e11 2c3d d207 4ebd 0d48 de3c
00000090: b780 38bd ba06 463d a4d5 34bd cef6 f3bc
000000a0: 7ae3 be3b 5318 1fbd 16d9 613c 3d2f 85bc
000000b0: 632a a13c 6fb9 253d 3eb5 a6bd 4619 a33c
000000c0: e467 dfbc dce5 193d e7b4 083c b88a a23c
000000d0: cdb1 5b3c e9ad 09bd abbd 343d 760e febb
000000e0: 05dc dbbb c2be 5ebc 6ab2 c3bd 6fc1 c43c
000000f0: 1932 533d b5ee e5bc 711c 4c3c 9673 8f3d
00000100: adf9 a5bc 7664 da3a 5830 3d3d 52ca dd3d
00000110: ab2e 623d 9460 063c 8cdc 8ebc bdbd 3d3d
00000120: d149 dfbd dd99 9dbc 46dd 613c 5e6a 10bb
00000130: 6212 8f3d 3702 8ebc 8324 90ba 271a 123d
00000140: 07d8 a8bc 393d 2abd c4a0 b93d f8e1 083c
00000150: 7eba 29bb 3d14 2abd dfee 473d dd04 6cbb
00000160: f806 0abd 2b32 74bd 3beb 4d3d 472b 1dbc
00000170: bf69 7abc 5c87 d9bc 40b9 46bd bf33 02bc
00000180: 16b5 b43d bfbc 1b3c a2b4 42bd cf41 72bd
00000190: e98a 1d3c 5324 143d a24e 043d 71a4 14bc
000001a0: ce7f 3d3d 4bd1 4e3b 4364 9ebc 4f4c 9abc
000001b0: 0868 a23c 9e54 f6bc 85d3 cbbc 7f51 d33c
000001c0: 8c38 b53c f7b3 00bd 77bb c1ba cbd4 1b3d
000001d0: 93ff 293c d74e bcbc a2ff 643c b615 d1bc
000001e0: 277a c03c 2f2b cfbc b0b9 143d 8fa5 373d
000001f0: 99b2 953c 3a8e 99bc 4b65 15bb 0976 a53c
00000200: ebdd 3a3d 5e3e 0abc 78f4 bfbc 4e40 713c
00000210: 22e9 8c3c 1975 843d 670c 1abd 49cc d6bc
00000220: 1b01 043c 1c6b e33d 8a8a 34bd ca18 583d
00000230: 9c0f 99bc 4771 01bd e3f4 15bd d52c 173d
00000240: 62aa 993c 6f1c de3d cc9f 563d d1c8 ecbc
00000250: d97c afbd 84ac a0bc 4528 8ebd da08 b13c
00000260: da46 7cbd 66e7 383d 6bf6 82bc ab5b 803d
00000270: 6f30 55bb 2596 a2bd 54e9 7e3c 9798 82bb
00000280: 5114 583c de69 1a3d e822 933c 4024 95bb
00000290: dfcc b43c ce65 abbc 0c0a 1fbd 168a 8a3b
000002a0: 4bc1 2f3d 382e 75bd 93f9 24bd 9efc f73c
000002b0: 0a00 94bc 4d47 ec3b fbd4 aa3c 8b49 943d
000002c0: dd78 90bd 9932 2e3d d054 23bc 1613 c5bd
000002d0: 80c5 15bd dd2f 0cbb 6546 483b b846 db3c
000002e0: 1158 2e3d 83ff 223a be2f 7f3d 0e30 abbd
000002f0: 16e5 38bd b110 0bbd 0680 00bc b744 aa3d
00000300: 1ebc 7e3d 7349 f5bc 8a7d 213d 138b 00bc
00000310: a855 76bd 3dcc 283d 5477 c5bb c648 b0bb
00000320: 383a 473b 9403 a6bc 34e0 c53b f1db 88bc
00000330: f460 61bd 4236 6e3d 3f50 1fbd 033a 363c
00000340: c702 c03b 630b 9b3d f8a1 913c dd50 6a3c
00000350: 4744 363c 4755 e5bb 9eac 1a3d a4a4 5abd
00000360: ede1 e83a c06b a03b 3ee6 81bd 12e4 34bd
00000370: cc18 2fbd 7631 2b3d 053d 44bd 70e1 aebc
00000380: e3a8 21bd 49a6 1f3b e978 1e3a f904 b6ba
00000390: 21be 8a3c e7ac ef3c 26e0 2c3d 3e9a d43c
000003a0: b990 f03c 41db c23c d86a 71bc 45f0 85bd
000003b0: 035f 873c 340f 093d 9d28 22bd 2b39 25bd
000003c0: 1713 80bc 2552 0639 daeb 1f3d 6207 b4bd
000003d0: 0c0c 8bbc 6813 d3bc 9b15 803d 5813 00bb
000003e0: 3dd2 30bc 5795 2cbd 8bf2 123d 4e36 bcbc
000003f0: e741 1f3d 296b 26bc cebe c33c 019e 5d3a
-0.022161128 -0.0013769288 0.055625603 0.03232495 0.026502974 0.02016764 0.05301957 -0.0066102496
0.009693408 -0.07822402 0.016705973 -0.058770742 -0.0235902 -0.005557603 0.02768211 -0.02192376
-0.011931822 -0.05310581 -0.024170034 -0.032783404 0.08743939 0.023468535 0.07963463 0.019136455
0.04639645 -0.04197474 -0.046857763 0.104400665 -0.024622137 0.0308629 -0.019157067 -0.09895225
-0.007951689 0.04200887 -0.050300427 0.027133966 -0.045044627 0.04834626 -0.044149056 -0.029780772
0.005825457 -0.038841557 0.0137846675 -0.016257877 0.019673532 0.040460046 -0.08140038 0.019909512
-0.027271219 0.037572727 0.008343912 0.019841537 0.01340909 -0.03361312 0.044126194 -0.0077531887
-0.006709578 -0.013595285 -0.09555514 0.024018018 0.05156145 -0.028067926 0.012457953 0.07004468
-0.020260656 0.001666202 0.046188682 0.10829605 0.055220287 0.008201737 -0.01743915 0.046323527
-0.10902751 -0.019238407 0.013785666 -0.0022036056 0.06985928 -0.01733504 -0.001099721 0.035669472
-0.020610822 -0.041562293 0.09063867 0.008354656 -0.0025898512 -0.041523207 0.04881179 -0.003601364
-0.033698052 -0.059618156 0.05027316 -0.009592838 -0.015284001 -0.026553802 -0.048516512 -0.007946908
0.08823602 0.00950545 -0.047535546 -0.05914479 0.009615638 0.036167454 0.032301553 -0.009072409
0.046264462 0.0031557854 -0.019334918 -0.018835215 0.019824997 -0.030069645 -0.024881134 0.025795696
0.02212169 -0.031421628 -0.00147806 0.038044732 0.010375875 -0.022986813 0.013976963 -0.025523048
0.023495747 -0.025289146 0.036309898 0.044835623 0.018273639 -0.018744577 -0.002279597 0.020197885
0.045621794 -0.008437721 -0.023432001 0.014724804 0.01720101 0.06467647 -0.037609484 -0.026220458
0.008056904 0.11104414 -0.044077434 0.052758016 -0.018684201 -0.03160217 -0.036610495 0.03690799
0.018758003 0.10845267 0.052398488 -0.02890435 -0.08568735 -0.019613512 -0.069412746 0.021610666
-0.061591007 0.045142554 -0.015986642 0.06267484 -0.003253009 -0.07938794 0.015558559 -0.0039854753
0.013188438 0.03769862 0.01796098 -0.0045514405 0.022070346 -0.020922568 -0.03882794 0.004227887
0.042908948 -0.05985853 -0.040277075 0.030271824 -0.018066425 0.007210648 0.02085351 0.0724059
-0.07054303 0.042528722 -0.009968951 -0.09622781 -0.036565304 -0.0021390833 0.0030559537 0.02676712
0.042564455 0.0006217884 0.06230139 -0.08358775 -0.04514035 -0.033951465 -0.007843023 0.083138876
0.06219112 -0.02994225 0.039426364 -0.007845658 -0.060140282 0.0412104 -0.006026188 -0.005379769
0.0030399691 -0.020265378 0.00603869 -0.016706439 -0.055024102 0.058157213 -0.038894888 0.0111222295
0.005859706 0.07570531 0.017777428 0.014301506 0.011124677 -0.0069986912 0.037762277 -0.05337967
0.0017767526 0.0048956573 -0.06342743 -0.044162817 -0.042748258 0.041795217 -0.047909755 -0.021347731
-0.039467704 0.0024360588 0.00060452387 -0.001388698 0.016936364 0.029257251 0.042205952 0.025952455
0.029365884 0.023786189 -0.014734946 -0.065399684 0.016524797 0.033461764 -0.039589513 -0.040337723
-0.015634103 0.00012809837 0.039043285 -0.08790471 -0.016973518 -0.02576609 0.06254121 -0.001954278
-0.010792312 -0.04213461 0.03587584 -0.022975113 0.03888121 -0.010157385 0.023894694 0.00084540254

bias f4 [12]
00000000: 2974 14be 5eed e23d fc5d f1bd 0af3 593e
00000010: 680b 563e eda5 4d3e 68d6 96bd 8016 363d
00000020: 98ad 18be 0837 80be 55eb 66be fede 69be
-0.14497437 0.110804304 -0.11785504 0.21284118 0.20902789 0.20082827 -0.073651135 0.04445505
-0.14909971 -0.25041986 -0.2255071 -0.22838971
